data.pth (torch, 7231 bytes, 6 tensors)

l1.weight f4 [8, 88]
000000 81 52 53 3e 26 e5 4e 3e b3 06 c8 3e f0 3a 60 be
       0.20636941 0.202046 0.3906761 -0.21897483
000010 5e ed 43 bf 21 6c 75 3f 78 02 e5 be f0 c3 22 3f
       -0.7653407 0.95868117 -0.44728446 0.63580227
000020 26 6b cc bb ab d9 1d bf 7a a2 d9 be f9 7b b3 3d
       -0.006238359 -0.6166026 -0.42506772 0.0876388
000030 1a f1 7d be f8 b6 8f be 33 06 86 be 07 60 98 3d
       -0.24799004 -0.28069282 -0.26176605 0.07440191
000040 a8 43 a1 bd 4f 4c 30 3f 2f cd 08 3f 26 4f 91 3f
       -0.078742325 0.6886644 0.53438085 1.1352279
000050 e4 dd f1 be e8 35 a0 3e f1 b0 86 3f 95 05 af 3e
       -0.47239602 0.31291127 1.0522748 0.34183946
000060 96 bb 92 3d 38 e9 5d bf 69 8d 76 3f 16 2e e4 3e
       0.071646854 -0.8668399 0.96309525 0.4456641
000070 1c ae 02 3e 5c aa 1e 3f 01 f7 0c 3f 65 a3 70 3e
       0.1276173 0.619787 0.550644 0.2349983
000080 e0 8a 18 3f 5d b5 33 3f d4 d0 23 3f ec 36 4f 3f
       0.59586906 0.70198613 0.6399052 0.8094318
000090 3e 1e 3b 3f fa 5e 3e 3e e6 a0 25 be 70 ac dd be
       0.7309302 0.18590918 -0.16174659 -0.43295622
0000a0 81 32 18 3f b3 c4 85 bf d8 24 ee 3e 42 73 bf be
       0.5945206 -1.0450653 0.46512485 -0.37392622
0000b0 d8 6e f2 3d 0d 31 b5 3d 75 2a e1 be 89 c6 97 3f
       0.11837548 0.08847246 -0.43977705 1.1857463
0000c0 10 2c a6 3e e7 18 b1 be 45 22 42 3d 47 ab 0a 3f
       0.32455492 -0.3458931 0.047395963 0.541676
0000d0 49 4d b9 be 31 0f 4d 3e a6 74 2d 3f 1b b1 fd be
       -0.36191776 0.20025326 0.67756116 -0.49549183
0000e0 f3 1c ac be fa 4b f3 bd 9a 45 3d be 6f 8d 0b 3e
       -0.33615837 -0.11879726 -0.18483582 0.13628171
0000f0 7e 09 f2 3e a3 c2 1e 3f 9c 70 59 bf 86 e6 cd 3d
       0.47272867 0.6201574 -0.84937453 0.100537345
000100 bd 86 67 3f fb 37 c5 3f 5e 1b 60 3f 65 22 42 3f
       0.9043997 1.5407709 0.8754176 0.7583373
000110 6f f2 14 be bb b2 21 3f d2 2b ef 3b 27 4d 09 3f
       -0.14545606 0.63163346 0.007298925 0.5363335
000120 f5 7b dc 3e a3 86 87 3d 79 88 15 3f 85 1f 0a 3f
       0.43063322 0.06617477 0.58411366 0.53954345
000130 74 2a e4 be 70 12 18 bf 36 6b 15 bf 7f 8a 6c bf
       -0.4456364 -0.59403133 -0.58366716 -0.9239883
000140 03 a7 9b be 04 99 03 3f 96 f6 46 3f cc f4 5d 3f
       -0.30400857 0.5140536 0.7772001 0.86701655
000150 39 61 1f 3f f6 50 0a bf f5 e8 17 be 9d ff 56 3e
       0.62257725 -0.54029787 -0.1483496 0.20995946
000160 19 ba 33 3c 42 c9 65 3c d9 dd 07 3f 52 72 71 be
       0.010969662 0.014025034 0.5307289 -0.23578766
000170 9f ee 41 3f 54 89 90 3f 8d 70 2a 3f 35 2c bd be
       0.7575473 1.1291909 0.6657799 -0.3694779
000180 2d 61 14 bf 8c 13 34 3f 4f b4 31 3f 2e ee f6 be
       -0.5796078 0.70342326 0.69415754 -0.48228592
000190 b9 cf eb bd cc 47 22 bf 2a 4d 81 bd dd 98 b0 3c
       -0.11514229 -0.63390803 -0.06313546 0.021557266
0001a0 64 92 69 3f 38 15 89 bf 26 67 35 be 46 49 2f bf
       0.91239 -1.07096 -0.1771513 -0.6847118
0001b0 cb f5 4b 3f 60 bc 95 bd c7 83 23 3e 4d ed 14 3f
       0.79671925 -0.0731132 0.15968238 0.5817459
0001c0 93 60 97 3e 20 f8 25 bf 6b d0 ad 3e 5d 74 9c be
       0.29565868 -0.64831734 0.33948073 -0.30557528
0001d0 e0 93 d9 be 09 74 46 bd 71 41 0a bf 4f b7 80 3e
       -0.42495632 -0.048450503 -0.54006106 0.25139853
0001e0 a4 4b 0a bf 94 45 0a bf 65 33 0a bf c0 51 38 3e
       -0.5402167 -0.5401242 -0.5398467 0.17999935
0001f0 cb e4 dc be 15 fd 26 bf 99 b7 32 3e c4 66 dd 3e
       -0.43143305 -0.6522992 0.1745285 0.43242466
000200 3c b1 a9 bd 76 dc 79 bf b6 26 bc bd e4 00 16 3f
       -0.08285758 -0.9760202 -0.09187071 0.5859511
000210 0f 15 cd bd ed bf 66 3b 34 c5 c8 3f 02 b8 60 be
       -0.10013782 0.0035209612 1.5685182 -0.21945193
000220 35 ae 59 bd 0c 4a 22 be ca 9a 30 bc 3c bd 09 bf
       -0.053144652 -0.15848559 -0.010779092 -0.53804374
000230 3c 1b e2 3e 20 c6 b2 3e d0 c5 7b bf 65 ca 05 3f
       0.44161403 0.34916782 -0.9834871 0.52261955
000240 e8 32 9d bd c2 3b 63 3c db 0e cc bc 09 4e 2c bf
       -0.07675725 0.013869228 -0.024909427 -0.6730657
000250 5c 55 a6 3f ea e5 32 3f aa 9c 3b 3f 9e 10 5f bd
       1.29948 0.6988207 0.73285925 -0.054459207
000260 58 cb 1d bf 6e f9 9a bc b4 08 ed bd 46 6d 1e be
       -0.616384 -0.018917765 -0.115739256 -0.15471372
000270 56 8b 0a 3e 5c ce 0b bf ed 7d 88 bc f6 10 3e 3f
       0.13529715 -0.54611754 -0.016661609 0.7424463
000280 89 a4 34 3f fc 36 35 3f 5d f6 ae be 2d a7 00 3f
       0.7056356 0.70787024 -0.34172335 0.5025509
000290 c2 92 d2 3e bf 9a 20 3f 4e 4c 6e 3f 13 84 54 3f
       0.41127592 0.62736124 0.9308518 0.8301403
0002a0 26 f5 c4 3e 06 48 16 3f f8 b0 27 bd 40 0b 81 bf
       0.38468283 0.5870365 -0.040940255 -1.0081558
0002b0 9c ce bb 3c 7e 99 fa 3e b2 b9 1f bd 03 3a 99 bd
       0.022925667 0.4894523 -0.038995452 -0.07481768
0002c0 99 65 af 3e 58 26 17 bd 45 ae 32 3f 84 92 38 3e
       0.342572 -0.0369018 0.69797164 0.18024641
0002d0 cd a0 31 be cf e1 42 3f fa db 06 be 3d 32 10 3f
       -0.17346497 0.76125807 -0.13169852 0.5632666
0002e0 01 51 10 3f a9 15 5a be ec c1 3e 3c 81 6a f8 be
       0.563736 -0.21297325 0.011642914 -0.48518756
0002f0 26 aa 8c 3e 83 b0 83 be e1 99 dc bd 7e db 32 3e
       0.27473563 -0.25720605 -0.107715376 0.17466542
000300 83 42 87 3f 8b f5 99 3f f7 a6 3a 3f 50 19 2a 3e
       1.0567173 1.2028059 0.7291102 0.16611218
000310 ca 8e 22 be 35 ea 77 3d 56 29 89 3e 11 f0 92 3e
       -0.15874782 0.06052609 0.2678935 0.2869878
000320 a9 30 61 3e b7 0b fe be b4 21 89 3e e3 93 1e 3f
       0.21991219 -0.49618313 0.26783526 0.6194441
000330 d3 e5 e8 be f2 e4 eb 3e e9 bb 49 3f 19 d5 18 3e
       -0.45487842 0.4607311 0.78802353 0.1492504
000340 07 8a 75 3f bd b2 59 3f 8d c3 3e 3f 23 8a 43 3f
       0.9591374 0.8503836 0.74517137 0.76382655
000350 61 5d 7e 3e 24 bf a6 3e 41 c7 38 3f 80 d8 99 3e
       0.24840309 0.32567704 0.7217904 0.3004799
000360 8c 0b 00 be 38 9a 06 bf 69 7d 44 be 16 41 ea 3d
       -0.12504405 -0.5257907 -0.19188465 0.114381954
000370 ca 1e 2e be 90 3f 69 3e 7d e7 21 bf aa 61 8e 3e
       -0.17003933 0.22778153 -0.6324385 0.27808887
000380 b3 30 e4 3e 95 81 b0 3e 27 5b 58 bc dc 71 07 bf
       0.44568405 0.34473863 -0.013205326 -0.5290811
000390 ca c8 d8 3d 6c b6 6d 3e f7 24 7b 3d 59 9b 5b 3e
       0.105851725 0.2321412 0.06131455 0.21445979
0003a0 ec 6b 8a 3d df 30 88 3e 45 61 98 3e 14 8d 55 3f
       0.06758866 0.26599786 0.2976171 0.83418393
0003b0 d3 f0 38 3d e9 c4 9f bd 81 ca 63 3f 7a fd 4a be
       0.045151543 -0.078012295 0.8898087 -0.19823256
0003c0 b8 9e 33 be 5f 33 b3 3d 4d e3 0a 3d 61 4d 89 bf
       -0.17541015 0.08750033 0.033908177 -1.0726739
0003d0 c3 de 8b be de b3 57 3e d6 bd 85 3d e8 14 1a 3f
       -0.2731839 0.21064708 0.06530349 0.6018815
0003e0 e6 bd e9 3e 64 f7 b9 3d 4c e6 9f 3e 27 cf e4 3e
       0.45652694 0.09080389 0.3123039 0.44689295
0003f0 42 fe 2a 3e 9b 50 9a 3e e3 59 3e 3f 20 ae fb be
       0.16698554 0.30139622 0.74355906 -0.49156284

l1.bias f4 [8]
000000 23 e2 b0 3f 71 40 0a 3f c9 21 97 3f f5 c4 7a 3f
       1.3819011 0.5400458 1.1807185 0.9795678
000010 a7 e2 81 3f 43 a8 2c 3f 92 9e be 3f 28 18 5a 3f
       1.0147294 0.67444247 1.4892142 0.8519311

l2.weight f4 [8, 8]
000000 9c 18 09 40 20 f6 98 bf 6c be cc 3e c9 d3 e6 3f
       2.142127 -1.1950111 0.3998903 1.8033382
000010 66 5b 0b 3f 69 b5 0d 3f a8 d9 22 40 17 bb 0b bf
       0.5443634 0.55354935 2.5445347 -0.5458235
000020 c5 28 ef be ff 52 05 40 fa 47 70 3f 70 b0 19 3f
       -0.46710792 2.0831907 0.9385983 0.6003485
000030 2d a8 fd bf d3 06 ab 3f fa e4 f9 be 0c 7d b6 3f
       -1.9816948 1.3361458 -0.48807508 1.4256911
000040 c6 10 d4 3f 03 54 00 3f 83 7a c9 3f 13 40 e0 bf
       1.6567619 0.5012819 1.5740513 -1.7519554
000050 7e fa 02 40 b8 f3 a3 bf cd 54 78 bd ac 8f 4f 3f
       2.0465388 -1.2808752 -0.060627747 0.810786
000060 1d 21 49 bf 29 d3 67 bf fa 48 80 3f a6 e4 49 bf
       -0.7856615 -0.9055658 1.0022271 -0.78864515
000070 0c 89 8c 3e 40 06 8a 3f f1 d2 98 3f 5b 29 9f 3f
       0.27448308 1.0783157 1.1939374 1.2434496
000080 c6 6d ee 3e 04 7d 43 bf cb bb 3e 3f 8b a7 1e bf
       0.46568125 -0.76362634 0.745053 -0.619744
000090 c8 0c ad bf 2c ba 1d 3e 2d 17 a3 bf f3 5d 8e 3f
       -1.3519526 0.1540305 -1.2741448 1.1122421
0000a0 17 51 40 be 49 3c a3 be 2e 23 db bd e4 7b 9d be
       -0.18780933 -0.3188193 -0.10700069 -0.30758584
0000b0 78 30 ab 3d f5 fa f4 3d 03 28 66 b9 70 37 d9 3c
       0.08358854 0.11961929 -0.00021949415 0.026515692
0000c0 bb a6 4d be 63 d1 e6 3e 0b 64 c5 3f ec e6 3d 3f
       -0.20083134 0.45081624 1.5421156 0.74180484
0000d0 fa 6b b8 bf cc a8 96 be ed 5f 7e 3d 0d d0 a9 3f
       -1.4407952 -0.29425657 0.0621032 1.3266617
0000e0 23 1a d3 bf 0e 11 03 3f 2c 0d 02 bf b5 d2 31 3f
       -1.6492351 0.511979 -0.5080135 0.6946214
0000f0 8c 58 dc 3f d3 ec 8e 3f 8b 6d 55 3f 68 4b 7f 3f
       1.7214522 1.1166023 0.83370274 0.99724436

l2.bias f4 [8]
000000 54 de a1 3f d6 32 7a be ef 85 11 3f f2 77 29 3d
       1.2645974 -0.24433455 0.5684499 0.041374154
000010 bd cd ac 3d a6 61 1e be 2c 75 0e 3f 18 c8 be bd
       0.08437679 -0.15466937 0.5564754 -0.093155086

l3.weight f4 [19, 8]
000000 94 cd 5f be 24 0d ac be 4f fa c5 bb 90 32 06 3e
       -0.21855766 -0.33603776 -0.006041802 0.13105226
000010 19 ad 86 3d 66 0d 8b 3e c0 9a cf 3e f9 9a c0 bf
       0.065759845 0.2715866 0.40547752 -1.5047294
000020 14 7d 96 bf b6 5e 9b 3e 0f 96 44 3f 7e 06 d9 be
       -1.1756921 0.30345696 0.7679147 -0.42387766
000030 2e 85 b1 bf 44 8c ff 3b a9 50 94 3e 57 bb 99 bf
       -1.3868768 0.0077987034 0.2896779 -1.2010297
000040 da 5a 10 bf 48 aa 7a bf b4 ac 85 3e 41 8b 18 3f
       -0.5638863 -0.9791608 0.26108325 0.59587485
000050 54 1c 9e bf 33 cb 90 be e2 07 bd be ff 38 f1 3d
       -1.2352395 -0.2828003 -0.36920077 0.11778449
000060 3a 52 94 bf d1 ec 3b 3d 77 7f ab be 63 fd e2 3e
       -1.1587594 0.045880143 -0.33495685 0.44333944
000070 bc dc 04 c0 b6 15 a1 3e fd 5e ae 3e 5c bd a3 3e
       -2.0759726 0.31461877 0.34056845 0.31980407
000080 b1 55 57 be 19 a6 6e 3c eb 61 14 3f 8b 30 0b c0
       -0.21028782 0.014565968 0.5796191 -2.1748378
000090 ff 1e 87 bf 50 3e 97 be 88 f7 62 bf a4 f1 14 3f
       -1.0556334 -0.29539728 -0.8865895 0.58181214
0000a0 ab 1d dc 3e 53 d8 3e bf d5 4a 87 3f 7c ff 19 c0
       0.42991385 -0.74548835 1.0569712 -2.4062185
0000b0 4b 4b 3d bf 16 96 4c 3e 4f d8 01 c0 38 d7 00 c0
       -0.7394301 0.19979128 -2.0288274 -2.013136
0000c0 4e cb 7c 3f ef 0d f0 bf 45 94 f8 bf 8e f1 d2 bf
       0.9874772 -1.8754252 -1.9420248 -1.6479967
0000d0 1c 57 ff be 51 91 0f be bf 50 8f bf d0 95 51 bd
       -0.49871147 -0.14020278 -1.1196517 -0.051168263
0000e0 5e af 45 bd ca f5 31 3f 86 9d 9e bf e3 1c 5d be
       -0.048262946 0.6951567 -1.2391822 -0.2159305
0000f0 32 73 f2 bf e7 51 2f be c8 dc b8 bd 5a 55 d7 be
       -1.8941405 -0.17121087 -0.09026486 -0.42057306
000100 e6 1f 0c c0 99 d9 d0 3e 91 b3 13 be ab e6 8c 3e
       -2.189447 0.40791014 -0.14423968 0.27519736
000110 aa a8 1f be a3 35 27 be 96 d6 a7 3e a6 21 a8 be
       -0.15591684 -0.16329055 0.32780904 -0.32838172
000120 b9 60 f5 3e 4b f8 9a bf e0 59 e0 3e 07 21 22 bc
       0.47925356 -1.2107023 0.4381857 -0.00989557
000130 10 7e 84 bf e3 a2 b4 3d 28 e1 23 c0 e3 41 20 c0
       -1.0350971 0.08820131 -2.5606174 -2.5040214
000140 42 39 a5 bf 14 ba 0c 3f 8f ea 02 c0 23 e4 a4 3e
       -1.2908099 0.5497143 -2.0455663 0.32205305
000150 1d 78 6c bf ce f2 71 be 3c 95 6f 3e 9f b1 ec 3e
       -0.9237078 -0.23627779 0.23396772 0.46229264
000160 e2 fb 81 3e e2 be e0 bf 38 d6 06 c0 d1 02 0e 3f
       0.25387484 -1.7558253 -2.1068249 0.5547305
000170 57 2c ce be 49 1d 39 3e db fe ce bf 4b b2 1f 3f
       -0.40268204 0.18077578 -1.6171526 0.6238143
000180 1b 50 90 3e 8c 8f 04 c0 a7 17 2b 3e 27 f3 50 3d
       0.28186116 -2.0712614 0.16708241 0.05101314
000190 da 15 54 bf fa f0 5f be 24 cf 21 c0 37 aa 93 3d
       -0.8284584 -0.21869269 -2.5282679 0.072102
0001a0 5e fd 88 bc fd 16 10 c0 be 83 10 3f 5f cd df 3e
       -0.016722377 -2.251403 0.5645102 0.43711373
0001b0 b3 f5 02 c0 cd dd 97 bd 46 78 df 3e 5c 34 12 c0
       -2.0462463 -0.07415352 0.4364645 -2.2844458
0001c0 07 8d 35 3f 82 22 06 c0 8a d5 bb bd 21 4f 0a c0
       0.70918316 -2.0958562 -0.09171589 -2.1610796
0001d0 d5 1a 67 bf 4a 7b 56 bc 35 1e 40 3e 77 b4 0f c0
       -0.9027532 -0.013090918 0.18761523 -2.2453897
0001e0 61 22 b4 3e 3f b0 26 bf 3f d5 0b c0 a2 2d 7d 3e
       0.3518248 -0.6511268 -2.1848905 0.24724439
0001f0 e7 09 68 bf 10 84 96 be 77 fd b2 3e 78 f5 b2 be
       -0.9064011 -0.2939763 0.34959003 -0.34952903
000200 22 f6 c7 bf af 5d df bd ce 27 e9 3e 13 2b 58 be
       -1.5621989 -0.109065406 0.4553818 -0.21110182
000210 9e 7f b7 3f 91 1a 78 be 80 c9 8c 3e 94 9d 97 bf
       1.4335821 -0.24228884 0.27497482 -1.1844964
000220 22 dd b2 3e f3 b3 9c 3e 27 01 5d bf 78 d2 06 c0
       0.34934336 0.3060604 -0.86329883 -2.106596
000230 55 bb d9 bf 3a cf 24 bd cd 55 46 3f 5c 94 f3 bf
       -1.7010294 -0.04023669 0.7747467 -1.9029651
000240 af dd 99 be 4f 89 b8 be 87 13 b0 bf f2 f0 fe 3d
       -0.30051944 -0.36042258 -1.3755959 0.124483004
000250 91 1c 11 bf b0 d0 71 3d 26 33 56 be 5f a8 58 3f
       -0.56684214 0.05903691 -0.20917949 0.84631914

l3.bias f4 [19]
000000 8e a0 a6 be a7 29 50 be c9 22 00 bf 17 10 b4 bd
       -0.32544369 -0.20328389 -0.5005308 -0.087921314
000010 fd 83 18 3f 44 1a 2b 3e fe 01 07 3f f2 ed c9 be
       0.595764 0.16709238 0.52737415 -0.3943935
000020 31 37 45 be f7 12 e3 be 72 99 a2 be 66 d7 90 bd
       -0.19259335 -0.44350407 -0.31757694 -0.07072334
000030 f9 50 b0 3e 13 c1 77 bd 20 df af 3e bd 1d ce 3d
       0.34436777 -0.060486864 0.34349918 0.10064266
000040 dc e1 c9 bb 95 e1 51 3e 9b de 01 bd
       -0.0061609577 0.20496209 -0.031706434
